  convolution_param {
    num_output: 32
    pad: 3
    kernel_size: 7
    stride: 1
    weight_filler {
      type: "gaussian"
      std: 0.0001
    }
    bias_filler {
      type: "constant"
    }
  }
}
layer {
  name: "bn4"
  type: "BatchNorm"
  bottom: "conv4"
  top: "bn4"
  param {
    lr_mult: 0
  }
  param {
    lr_mult: 0
  }
  param {
    lr_mult: 0
  }
}
layer {
  name: "relu4"
  type: "ReLU"
  bottom: "bn4"
  top: "bn4"
}
layer {
  name: "pool2"
  type: "Pooling"
  bottom: "bn4"
  top: "pool2"
  pooling_param {
    pool: MAX
    kernel_size: 3
    stride: 2
  }
}
layer {
  name: "ip1"
  type: "InnerProduct"
  bottom: "pool2"
  top: "ip1"
  param {
    lr_mult: 1
    decay_mult: 1
  }
  param {
    lr_mult: 1
    decay_mult: 0
  }
  inner_product_param {
    num_output: 1000
    weight_filler {
      type: "gaussian"
      std: 0.01
    }
    bias_filler {
      type: "constant"
    }
  }
}
layer {
  name: "bn5"
  type: "BatchNorm"
  bottom: "ip1"
  top: "bn5"
  param {
    lr_mult: 0
  }
  param {
    lr_mult: 0
  }
  param {
    lr_mult: 0
  }
}
layer {
  name: "relu4"
  type: "ReLU"
  bottom: "bn5"
  top: "bn5"
}
layer {
  name: "ip2"
  type: "InnerProduct"
  bottom: "bn5"
  top: "ip2"
  param {
    lr_mult: 1
    decay_mult: 1
  }
  param {
    lr_mult: 1
    decay_mult: 0
  }
  inner_product_param {
    num_output: 5
    weight_filler {
      type: "gaussian"
      std: 0.01
    }
    bias_filler {
      type: "constant"
    }
  }
}
layer {
  name: "accuracy"
  type: "Accuracy"
  bottom: "ip2"
  bottom: "label"
  top: "accuracy"
  include {
    phase: TEST
  }
}
layer {
  name: "loss"
  type: "SoftmaxWithLoss"
  bottom: "ip2"
  bottom: "label"
  top: "loss"
}
layer {
  name: "ip3"
  type: "InnerProduct"
  bottom: "pool2"
  top: "ip3"
  param {
    lr_mult: 1
    decay_mult: 1
  }
  param {
    lr_mult: 1
    decay_mult: 0
  }
  inner_product_param {
    num_output: 1000
    weight_filler {
      type: "gaussian"
      std: 0.01
    }
    bias_filler {
      type: "constant"
    }
  }
}
layer {
  name: "bn6"
  type: "BatchNorm"
  bottom: "ip3"
  top: "bn6"
  param {
    lr_mult: 0
  }
  param {
    lr_mult: 0
  }
  param {
    lr_mult: 0
  }
}
layer {
  name: "relu5"
  type: "ReLU"
  bottom: "bn6"
  top: "bn6"
}
layer {
  name: "ip4"
  type: "InnerProduct"
  bottom: "bn6"
  top: "ip4"
  param {
    lr_mult: 1
    decay_mult: 1
  }
  param {
    lr_mult: 1
    decay_mult: 0
  }
  inner_product_param {
    num_output: 4
    weight_filler {
      type: "gaussian"
      std: 0.01
    }
    bias_filler {
      type: "constant"
    }
  }
}
layer {
  name: "Tbox_loss"
  type: "EuclideanLoss"
  bottom: "ip4"
  bottom: "box"
  top: "Tbox_loss"
  include {
    phase: TEST
  }
}
I0519 19:26:25.485563 14817 layer_factory.hpp:77] Creating layer data
I0519 19:26:25.485574 14817 net.cpp:91] Creating Layer data
I0519 19:26:25.485577 14817 net.cpp:399] data -> data
I0519 19:26:25.485584 14817 net.cpp:399] data -> label
I0519 19:26:25.485591 14817 hdf5_data_layer.cpp:79] Loading list of HDF5 filenames from: menglin_try/test.txt
I0519 19:26:25.485608 14817 hdf5_data_layer.cpp:93] Number of HDF5 files: 1
I0519 19:26:25.806372 14817 net.cpp:141] Setting up data
I0519 19:26:25.806404 14817 net.cpp:148] Top shape: 100 3 255 255 (19507500)
I0519 19:26:25.806411 14817 net.cpp:148] Top shape: 100 1 (100)
I0519 19:26:25.806416 14817 net.cpp:156] Memory required for data: 78030400
I0519 19:26:25.806423 14817 layer_factory.hpp:77] Creating layer label_data_1_split
I0519 19:26:25.806435 14817 net.cpp:91] Creating Layer label_data_1_split
I0519 19:26:25.806442 14817 net.cpp:425] label_data_1_split <- label
I0519 19:26:25.806448 14817 net.cpp:399] label_data_1_split -> label_data_1_split_0
I0519 19:26:25.806458 14817 net.cpp:399] label_data_1_split -> label_data_1_split_1
I0519 19:26:25.806488 14817 net.cpp:141] Setting up label_data_1_split
I0519 19:26:25.806495 14817 net.cpp:148] Top shape: 100 1 (100)
I0519 19:26:25.806500 14817 net.cpp:148] Top shape: 100 1 (100)
I0519 19:26:25.806504 14817 net.cpp:156] Memory required for data: 78031200
I0519 19:26:25.806509 14817 layer_factory.hpp:77] Creating layer data
I0519 19:26:25.806515 14817 net.cpp:91] Creating Layer data
I0519 19:26:25.806520 14817 net.cpp:399] data -> box
I0519 19:26:25.806527 14817 hdf5_data_layer.cpp:79] Loading list of HDF5 filenames from: menglin_try/test_box.txt
I0519 19:26:25.806550 14817 hdf5_data_layer.cpp:93] Number of HDF5 files: 1
I0519 19:26:25.807829 14817 net.cpp:141] Setting up data
I0519 19:26:25.807847 14817 net.cpp:148] Top shape: 100 4 (400)
I0519 19:26:25.807852 14817 net.cpp:156] Memory required for data: 78032800
I0519 19:26:25.807857 14817 layer_factory.hpp:77] Creating layer conv1
I0519 19:26:25.807868 14817 net.cpp:91] Creating Layer conv1
I0519 19:26:25.807874 14817 net.cpp:425] conv1 <- data
I0519 19:26:25.807881 14817 net.cpp:399] conv1 -> conv1
I0519 19:26:25.809942 14817 net.cpp:141] Setting up conv1
I0519 19:26:25.809952 14817 net.cpp:148] Top shape: 100 32 33 33 (3484800)
I0519 19:26:25.809957 14817 net.cpp:156] Memory required for data: 91972000
I0519 19:26:25.809965 14817 layer_factory.hpp:77] Creating layer bn1
I0519 19:26:25.809973 14817 net.cpp:91] Creating Layer bn1
I0519 19:26:25.809978 14817 net.cpp:425] bn1 <- conv1
I0519 19:26:25.809983 14817 net.cpp:399] bn1 -> bn1
I0519 19:26:25.810094 14817 net.cpp:141] Setting up bn1
I0519 19:26:25.810101 14817 net.cpp:148] Top shape: 100 32 33 33 (3484800)
I0519 19:26:25.810106 14817 net.cpp:156] Memory required for data: 105911200
I0519 19:26:25.810114 14817 layer_factory.hpp:77] Creating layer relu1
I0519 19:26:25.810120 14817 net.cpp:91] Creating Layer relu1
I0519 19:26:25.810124 14817 net.cpp:425] relu1 <- bn1
I0519 19:26:25.810129 14817 net.cpp:386] relu1 -> bn1 (in-place)
I0519 19:26:25.810137 14817 net.cpp:141] Setting up relu1
I0519 19:26:25.810158 14817 net.cpp:148] Top shape: 100 32 33 33 (3484800)
I0519 19:26:25.810163 14817 net.cpp:156] Memory required for data: 119850400
I0519 19:26:25.810166 14817 layer_factory.hpp:77] Creating layer conv2
I0519 19:26:25.810174 14817 net.cpp:91] Creating Layer conv2
I0519 19:26:25.810178 14817 net.cpp:425] conv2 <- bn1
I0519 19:26:25.810184 14817 net.cpp:399] conv2 -> conv2
I0519 19:26:25.810820 14817 net.cpp:141] Setting up conv2
I0519 19:26:25.810828 14817 net.cpp:148] Top shape: 100 32 33 33 (3484800)
I0519 19:26:25.810832 14817 net.cpp:156] Memory required for data: 133789600
I0519 19:26:25.810838 14817 layer_factory.hpp:77] Creating layer bn2
I0519 19:26:25.810844 14817 net.cpp:91] Creating Layer bn2
I0519 19:26:25.810848 14817 net.cpp:425] bn2 <- conv2
I0519 19:26:25.810853 14817 net.cpp:399] bn2 -> bn2
I0519 19:26:25.810959 14817 net.cpp:141] Setting up bn2
I0519 19:26:25.810966 14817 net.cpp:148] Top shape: 100 32 33 33 (3484800)
I0519 19:26:25.810971 14817 net.cpp:156] Memory required for data: 147728800
I0519 19:26:25.810978 14817 layer_factory.hpp:77] Creating layer relu2
I0519 19:26:25.810986 14817 net.cpp:91] Creating Layer relu2
I0519 19:26:25.810989 14817 net.cpp:425] relu2 <- bn2
I0519 19:26:25.810994 14817 net.cpp:386] relu2 -> bn2 (in-place)
I0519 19:26:25.811000 14817 net.cpp:141] Setting up relu2
I0519 19:26:25.811004 14817 net.cpp:148] Top shape: 100 32 33 33 (3484800)
I0519 19:26:25.811008 14817 net.cpp:156] Memory required for data: 161668000
I0519 19:26:25.811012 14817 layer_factory.hpp:77] Creating layer pool1
I0519 19:26:25.811017 14817 net.cpp:91] Creating Layer pool1
I0519 19:26:25.811022 14817 net.cpp:425] pool1 <- bn2
I0519 19:26:25.811027 14817 net.cpp:399] pool1 -> pool1
I0519 19:26:25.811048 14817 net.cpp:141] Setting up pool1
I0519 19:26:25.811053 14817 net.cpp:148] Top shape: 100 32 16 16 (819200)
I0519 19:26:25.811058 14817 net.cpp:156] Memory required for data: 164944800
I0519 19:26:25.811061 14817 layer_factory.hpp:77] Creating layer conv3
I0519 19:26:25.811069 14817 net.cpp:91] Creating Layer conv3
I0519 19:26:25.811072 14817 net.cpp:425] conv3 <- pool1
I0519 19:26:25.811077 14817 net.cpp:399] conv3 -> conv3
I0519 19:26:25.812196 14817 net.cpp:141] Setting up conv3
I0519 19:26:25.812204 14817 net.cpp:148] Top shape: 100 32 16 16 (819200)
I0519 19:26:25.812208 14817 net.cpp:156] Memory required for data: 168221600
I0519 19:26:25.812214 14817 layer_factory.hpp:77] Creating layer bn3
I0519 19:26:25.812221 14817 net.cpp:91] Creating Layer bn3
I0519 19:26:25.812224 14817 net.cpp:425] bn3 <- conv3
I0519 19:26:25.812229 14817 net.cpp:399] bn3 -> bn3
I0519 19:26:25.812328 14817 net.cpp:141] Setting up bn3
I0519 19:26:25.812335 14817 net.cpp:148] Top shape: 100 32 16 16 (819200)
I0519 19:26:25.812337 14817 net.cpp:156] Memory required for data: 171498400
I0519 19:26:25.812345 14817 layer_factory.hpp:77] Creating layer relu3
I0519 19:26:25.812350 14817 net.cpp:91] Creating Layer relu3
I0519 19:26:25.812353 14817 net.cpp:425] relu3 <- bn3
I0519 19:26:25.812358 14817 net.cpp:386] relu3 -> bn3 (in-place)
I0519 19:26:25.812363 14817 net.cpp:141] Setting up relu3
I0519 19:26:25.812368 14817 net.cpp:148] Top shape: 100 32 16 16 (819200)
I0519 19:26:25.812371 14817 net.cpp:156] Memory required for data: 174775200
I0519 19:26:25.812376 14817 layer_factory.hpp:77] Creating layer conv4
I0519 19:26:25.812382 14817 net.cpp:91] Creating Layer conv4
I0519 19:26:25.812386 14817 net.cpp:425] conv4 <- bn3
I0519 19:26:25.812391 14817 net.cpp:399] conv4 -> conv4
I0519 19:26:25.813885 14817 net.cpp:141] Setting up conv4
I0519 19:26:25.813897 14817 net.cpp:148] Top shape: 100 32 16 16 (819200)
I0519 19:26:25.813901 14817 net.cpp:156] Memory required for data: 178052000
I0519 19:26:25.813910 14817 layer_factory.hpp:77] Creating layer bn4
I0519 19:26:25.813916 14817 net.cpp:91] Creating Layer bn4
I0519 19:26:25.813920 14817 net.cpp:425] bn4 <- conv4
I0519 19:26:25.813926 14817 net.cpp:399] bn4 -> bn4
I0519 19:26:25.814039 14817 net.cpp:141] Setting up bn4
I0519 19:26:25.814049 14817 net.cpp:148] Top shape: 100 32 16 16 (819200)
I0519 19:26:25.814064 14817 net.cpp:156] Memory required for data: 181328800
I0519 19:26:25.814070 14817 layer_factory.hpp:77] Creating layer relu4
I0519 19:26:25.814077 14817 net.cpp:91] Creating Layer relu4
I0519 19:26:25.814081 14817 net.cpp:425] relu4 <- bn4
I0519 19:26:25.814086 14817 net.cpp:386] relu4 -> bn4 (in-place)
I0519 19:26:25.814092 14817 net.cpp:141] Setting up relu4
I0519 19:26:25.814097 14817 net.cpp:148] Top shape: 100 32 16 16 (819200)
I0519 19:26:25.814101 14817 net.cpp:156] Memory required for data: 184605600
I0519 19:26:25.814105 14817 layer_factory.hpp:77] Creating layer pool2
I0519 19:26:25.814111 14817 net.cpp:91] Creating Layer pool2
I0519 19:26:25.814116 14817 net.cpp:425] pool2 <- bn4
I0519 19:26:25.814119 14817 net.cpp:399] pool2 -> pool2
I0519 19:26:25.814144 14817 net.cpp:141] Setting up pool2
I0519 19:26:25.814151 14817 net.cpp:148] Top shape: 100 32 8 8 (204800)
I0519 19:26:25.814154 14817 net.cpp:156] Memory required for data: 185424800
I0519 19:26:25.814157 14817 layer_factory.hpp:77] Creating layer pool2_pool2_0_split
I0519 19:26:25.814163 14817 net.cpp:91] Creating Layer pool2_pool2_0_split
I0519 19:26:25.814167 14817 net.cpp:425] pool2_pool2_0_split <- pool2
I0519 19:26:25.814172 14817 net.cpp:399] pool2_pool2_0_split -> pool2_pool2_0_split_0
I0519 19:26:25.814178 14817 net.cpp:399] pool2_pool2_0_split -> pool2_pool2_0_split_1
I0519 19:26:25.814198 14817 net.cpp:141] Setting up pool2_pool2_0_split
I0519 19:26:25.814203 14817 net.cpp:148] Top shape: 100 32 8 8 (204800)
I0519 19:26:25.814208 14817 net.cpp:148] Top shape: 100 32 8 8 (204800)
I0519 19:26:25.814213 14817 net.cpp:156] Memory required for data: 187063200
I0519 19:26:25.814215 14817 layer_factory.hpp:77] Creating layer ip1
I0519 19:26:25.814224 14817 net.cpp:91] Creating Layer ip1
I0519 19:26:25.814227 14817 net.cpp:425] ip1 <- pool2_pool2_0_split_0
I0519 19:26:25.814232 14817 net.cpp:399] ip1 -> ip1
I0519 19:26:25.856752 14817 net.cpp:141] Setting up ip1
I0519 19:26:25.856781 14817 net.cpp:148] Top shape: 100 1000 (100000)
I0519 19:26:25.856786 14817 net.cpp:156] Memory required for data: 187463200
I0519 19:26:25.856796 14817 layer_factory.hpp:77] Creating layer bn5
I0519 19:26:25.856807 14817 net.cpp:91] Creating Layer bn5
I0519 19:26:25.856813 14817 net.cpp:425] bn5 <- ip1
I0519 19:26:25.856820 14817 net.cpp:399] bn5 -> bn5
I0519 19:26:25.856952 14817 net.cpp:141] Setting up bn5
I0519 19:26:25.856961 14817 net.cpp:148] Top shape: 100 1000 (100000)
I0519 19:26:25.856964 14817 net.cpp:156] Memory required for data: 187863200
I0519 19:26:25.856971 14817 layer_factory.hpp:77] Creating layer relu4
I0519 19:26:25.856977 14817 net.cpp:91] Creating Layer relu4
I0519 19:26:25.856981 14817 net.cpp:425] relu4 <- bn5
I0519 19:26:25.856987 14817 net.cpp:386] relu4 -> bn5 (in-place)
I0519 19:26:25.856993 14817 net.cpp:141] Setting up relu4
I0519 19:26:25.856998 14817 net.cpp:148] Top shape: 100 1000 (100000)
I0519 19:26:25.857002 14817 net.cpp:156] Memory required for data: 188263200
I0519 19:26:25.857005 14817 layer_factory.hpp:77] Creating layer ip2
I0519 19:26:25.857012 14817 net.cpp:91] Creating Layer ip2
I0519 19:26:25.857017 14817 net.cpp:425] ip2 <- bn5
I0519 19:26:25.857023 14817 net.cpp:399] ip2 -> ip2
I0519 19:26:25.857182 14817 net.cpp:141] Setting up ip2
I0519 19:26:25.857189 14817 net.cpp:148] Top shape: 100 5 (500)
I0519 19:26:25.857193 14817 net.cpp:156] Memory required for data: 188265200
I0519 19:26:25.857198 14817 layer_factory.hpp:77] Creating layer ip2_ip2_0_split
I0519 19:26:25.857204 14817 net.cpp:91] Creating Layer ip2_ip2_0_split
I0519 19:26:25.857208 14817 net.cpp:425] ip2_ip2_0_split <- ip2
I0519 19:26:25.857213 14817 net.cpp:399] ip2_ip2_0_split -> ip2_ip2_0_split_0
I0519 19:26:25.857219 14817 net.cpp:399] ip2_ip2_0_split -> ip2_ip2_0_split_1
I0519 19:26:25.857241 14817 net.cpp:141] Setting up ip2_ip2_0_split
I0519 19:26:25.857246 14817 net.cpp:148] Top shape: 100 5 (500)
I0519 19:26:25.857250 14817 net.cpp:148] Top shape: 100 5 (500)
I0519 19:26:25.857254 14817 net.cpp:156] Memory required for data: 188269200
I0519 19:26:25.857273 14817 layer_factory.hpp:77] Creating layer accuracy
I0519 19:26:25.857280 14817 net.cpp:91] Creating Layer accuracy
I0519 19:26:25.857283 14817 net.cpp:425] accuracy <- ip2_ip2_0_split_0
I0519 19:26:25.857288 14817 net.cpp:425] accuracy <- label_data_1_split_0
I0519 19:26:25.857293 14817 net.cpp:399] accuracy -> accuracy
…
